models/mymodel.onnx (onnx, 421403 bytes, 6 tensors)

sequential/dense_2/MatMul/ReadVariableOp:0 f4 [32, 10]
-0.37314883 -0.3700232 0.62847096 -0.20552473 -0.15066169 -0.36084467 -0.26357356 0.17758927
0.2921688 -0.42542917 0.30777457 0.316492 -0.11777885 0.46208128 -0.5066877 -0.36614996
-0.36311617 -0.23935819 -0.0010101997 0.20356533 -0.065246135 -0.20678726 -0.47608167 0.0028010146
0.033910293 -0.317269 -0.00826957 -0.31538072 -0.29359597 0.15370189 0.15215161 -0.0047439095
0.13776772 -0.13894576 0.102797724 -0.6131706 0.32974446 -0.49780393 -0.45598808 0.14404161
-0.22798528 -0.00759875 0.3179088 0.23681825 -0.36941385 0.10503923 -0.8098372 0.33814645
0.13244045 0.40136546 0.13640533 -0.41839096 -0.4490362 -0.25138995 0.41482565 0.14923339
0.14555933 -0.11961398 -0.45779982 0.255065 -0.021542039 -0.36834505 0.08638142 0.1164916
0.51922923 0.057463344 0.36943403 0.04344746 -0.4565556 0.12967092 -0.48101982 0.5088013
-0.20545705 -0.5940541 0.59895664 -0.59207237 -0.61276865 -0.45242342 0.11083631 0.2663411
0.54957354 -0.4007132 0.18362564 -0.4079822 -0.49662998 -0.3111683 -0.34565786 0.32312497
0.32611763 0.36421448 0.37949827 0.07591237 0.088074364 0.31000754 -0.095047735 0.055268977
0.19301781 0.18868062 -0.21035889 -0.5919207 0.41970322 0.330349 0.400207 0.10255187
0.22290835 -0.43313554 -0.30383632 0.40291855 0.04870792 -0.528437 -0.52613986 0.32554486
-0.07365343 -0.48898548 0.2902217 0.29643402 -0.23414662 0.34004188 -0.37865946 -0.003938969
-0.11603365 0.53907895 0.09629557 0.09691561 0.3647018 -0.6909854 -0.009259839 -0.12159275
-0.37923923 -0.19939533 -0.32023516 -0.08865439 0.103835486 0.29261896 -0.34883302 -0.11131369
-0.27239877 -0.44105262 0.28893942 0.23977485 -0.28871888 0.08429629 -0.08217725 0.05310425
-0.14751816 -0.48468855 -0.11967291 -0.27848822 -0.6619596 0.57260126 0.24327981 0.34092402
-0.7388879 -0.5349087 0.5009006 0.10363244 0.43640655 -0.0122144185 0.4332923 0.25106066
-0.39189833 -0.07463511 -0.20244959 -0.3566103 0.26478574 -0.28031775 -0.053692482 0.62189054
-0.2883929 0.13947733 -0.5346968 -0.73252326 -0.4627957 0.36907625 -0.38667542 0.31815746
-0.09708775 -0.06643664 -0.01748618 -0.005203166 -0.13803832 0.13202728 -0.415634 -0.15194796
-0.64129174 0.46763286 0.10003747 -0.3038709 0.1416318 -0.49808732 0.374067 -0.17657818
-0.29940313 -0.2758667 -0.7538973 0.4446278 -0.47094244 0.11674898 0.2657059 0.10910042
0.16013765 0.10775426 0.4558835 -0.1342241 0.0098854555 -0.36655077 0.3505857 -0.45683765
0.2553742 0.0016774838 -0.77456796 0.22370633 0.12775841 0.26199985 0.019848451 0.4425723
-0.5279361 -0.31711513 0.20500895 -0.03158634 0.17839678 0.11920653 0.19255146 0.20743339
-0.8390393 0.37307945 0.25556675 0.21366873 -0.35856822 0.106872804 0.040825203 -0.1329955
-0.35295105 -0.20762618 -0.14307493 0.20748764 0.48654512 -0.2654292 0.2994894 -0.37776136
-0.23316206 0.2456474 0.5214508 -0.18084319 -0.5100448 0.09649786 -0.24437542 0.049950298
-0.70921946 -0.01885976 -0.2883334 -0.18529727 0.08414818 0.2648434 -0.08951388 0.052445147
00000000: 5d0d bfbe ae73 bdbe 79e3 203f 1375 52be
00000010: 0f47 1abe a2c0 b8be 1df3 86be f6d9 353e
00000020: 2697 953e dad1 d9be a194 9d3e 3d0b a23e
00000030: 0a36 f1bd eb95 ec3e 49b6 01bf 0278 bbbe
00000040: 5dea b9be 501a 75be ad68 84ba 6e73 503e
00000050: c49f 85bd 0ac0 53be fac0 f3be 3a91 373b
00000060: 85e5 0a3d 1571 a2be 177d 07bc 9579 a1be
00000070: 3652 96be 0764 1d3e a2cd 1b3e cc72 9bbb
00000080: fb12 0d3e cc47 0ebe 9d87 d23d c0f8 1cbf
00000090: 44d4 a83e 28e0 febe 4577 e9be a57f 133e
000000a0: f974 69be effe f8bb f1c4 a23e 7c80 723e
000000b0: d023 bdbe cf1e d73d 7e51 4fbf 8821 ad3e
000000c0: 789e 073e c67f cd3e d7ad 0b3e 5737 d6be
000000d0: 13e8 e5be 2fb6 80be 0764 d43e a3d0 183e
000000e0: 810d 153e 2df8 f4bd bd64 eabe e197 823e
000000f0: ee78 b0bc b997 bcbe bee8 b03d 2693 ee3d
00000100: 35ec 043f af5e 6b3d 7526 bd3e f7f5 313d
00000110: a8c1 e9be 74c8 043e 3b48 f6be cd40 023f
00000120: 5563 52be ee13 18bf 3955 193f 0e92 17bf
00000130: 68de 1cbf 0ba4 e7be 26fe e23d dc5d 883e
00000140: dab0 0c3f 482a cdbe 5c08 3c3e 0be3 d0be
00000150: 4946 febe 7451 9fbe 11fa b0be a370 a53e
00000160: e4f8 a63e 527a ba3e 994d c23e f277 9b3d
00000170: 5560 b43d 4fb9 9e3e 63a8 c2bd b961 623d
00000180: 76a6 453e 7e35 413e 5268 57be 1d88 17bf
00000190: 57e3 d63e 8123 a93e efe7 cc3e b706 d23d
000001a0: 1642 643e f1c3 ddbe 6f90 9bbe 574b ce3e
000001b0: f581 473d a647 07bf 1ab1 06bf d1ad a63e
000001c0: 9cd7 96bd 4e5c fabe f097 943e 33c6 973e
000001d0: 22c4 6fbe f819 ae3e a7df c1be 7812 81bb
000001e0: 0da3 edbd 1401 0a3f 9d36 c53d b17b c63d
000001f0: 32ba ba3e 6be4 30bf 94b6 17bc 9f05 f9bd
00000200: a52b c2be 4a2e 4cbe ddf5 a3be 6f90 b5bd
00000210: b3a7 d43d 27d2 953e 3e9a b2be 6ff8 e3bd
00000220: da77 8bbe a6d1 e1be deef 933e 8a87 753e
00000230: f6d2 93be 89a3 ac3d 8c4c a8bd d883 593d
00000240: 000f 17be 1929 f8be 1217 f5bd 0296 8ebe
00000250: 2f76 29bf ff95 123f 581e 793e 988d ae3e
00000260: c227 3dbf c7ef 08bf 063b 003f 3f3d d43d
00000270: ae70 df3e fc1e 48bc 7dd8 dd3e 068b 803e
00000280: e6a6 c8be 4bda 98bd f24e 4fbe a095 b6be
00000290: ff91 873e cf85 8fbe a6ec 5bbd 3834 1f3f
000002a0: 3ca8 93be 25d3 0e3e e4e1 08bf a586 3bbf
000002b0: 8ff3 ecbe 90f7 bc3e 52fa c5be 89e5 a23e
000002c0: f1d5 c6bd ef0f 88bd 2d3f 8fbc 527f aabb
000002d0: eb59 0dbe 2932 073e fbcd d4be 3f98 1bbe
000002e0: b22b 24bf 936d ef3e 72e0 cc3d f794 9bbe
000002f0: ed07 113e 4d05 ffbe b685 bf3e e9d0 34be
00000300: 5e4b 99be 663e 8dbe 6aff 40bf 41a6 e33e
00000310: 5e1f f1be 171a ef3d 9b0a 883e 0a70 df3d
00000320: 20fb 233e 44ae dc3d 9069 e93e 0b72 09be
00000330: 9bf6 213c 8bac bbbe f87f b33e a0e6 e9be
00000340: 68c0 823e 04df db3a 164a 46bf 4613 653e
00000350: 1ad3 023e d824 863e 3899 a23c d698 e23e
00000360: d226 07bf ea5c a2be deed 513e ae60 01bd
00000370: a5ad 363e 8e22 f43d 362c 453e 6b69 543e
00000380: 48cb 56bf 4504 bf3e a5d9 823e facb 5a3e
00000390: 4196 b7be 21e0 da3d 5438 273d f92f 08be
000003a0: 00b6 b4be f59b 54be 3c82 12be a477 543e
000003b0: 711c f93e 56e6 87be ad56 993e f069 c1be
000003c0: 09c2 6ebe fe8a 7b3e cd7d 053f f52e 39be
000003d0: 4c92 02bf aca0 c53d 8d3d 7abe af98 4c3d
000003e0: 688f 35bf c97f 9abc 6fa0 93be 91be 3dbe
000003f0: e255 ac3d 8e99 873e 0e53 b7bd b9d0 563d

sequential/dense_2/BiasAdd/ReadVariableOp:0 f4 [10]
0.013949804 -0.18475327 0.011103767 -0.014071169 0.0977763 -0.0024911673 0.020997768 -0.109946415
0.16971126 -0.07565811
00000000: b88d 643c f62f 3dbe 93ec 353c c38a 66bc
00000010: f13e c83d da42 23bb 8303 ac3c 962b e1bd
00000020: cac8 2d3e a4f2 9abd

sequential/dense_1/MatMul/ReadVariableOp:0 f4 [128, 32]
0.04535167 0.10621932 0.0678575 -0.006703383 0.06246334 -0.26086766 -0.15529034 0.3047411
0.25999478 -0.16638061 0.14274272 -0.15877952 0.012113301 0.021531675 0.055701766 -0.009239807
0.072715215 -0.056086406 -0.15454453 0.28166023 0.18863447 -0.13472208 -0.33979815 0.065656215
0.08961609 -0.14744098 0.12458259 0.06642519 -0.20084718 0.1325178 0.012243644 -0.072203785
-0.24706161 0.22272803 -0.20782925 0.22342287 -0.09053631 0.24572329 0.22360334 0.14577147
0.18630111 0.19019142 0.23558934 0.085517965 -0.08346871 -0.16546671 0.15017186 -0.056835424
0.319666 -0.09370207 -0.022230478 0.14920805 0.23520023 -0.25860557 -0.13518919 -0.18564513
-0.061037168 -0.24203628 -0.043828603 -0.2350089 0.16347471 0.17397293 -0.14337823 0.0860736
-0.1288714 -0.036270566 -0.29177734 -0.22178265 -0.13218771 0.10725253 -0.061991066 0.085596845
0.16807584 0.14237621 -0.026715193 -0.3056983 0.05211646 -0.10037844 -0.17433873 -0.15744567
0.20219807 0.15054195 0.21338294 0.17640899 0.13079107 -0.060165945 -0.05567341 0.060726997
-0.397752 0.024819493 0.13119613 0.17083079 -0.2572918 0.07168654 0.064910926 0.17943041
-0.17980744 -0.11687948 -0.26911113 -0.47619238 -0.16442554 -0.14046723 0.066274084 -0.45850223
-0.13077511 0.43899465 0.35673898 0.010971786 -0.06961222 -0.15677772 -0.42757314 -0.30495703
0.28337863 0.03120263 0.2906231 -0.2451513 -0.07572633 0.31598786 0.28788915 0.25948897
0.18182951 0.16097218 -0.05687619 -0.08709529 0.095074855 -0.35915676 0.1668613 -0.3937525
-0.09317531 0.2636041 -0.08508903 0.1199078 0.04462755 0.12287816 -0.08571236 -0.049438845
0.07237045 0.21125801 0.0038898536 -0.12399138 -0.06676266 0.2135715 -0.1495137 0.1539136
-0.20476069 -0.15610269 0.30588865 0.09960625 0.081141576 -0.03604364 0.38143048 0.17543305
0.13879746 0.13967374 -0.13157709 0.030308321 -0.0067014536 0.14740752 0.11728274 0.02151213
0.17738384 -0.19093122 0.029974481 -0.16662757 0.51871955 -0.3956378 -0.12692727 -0.24005495
0.03901803 -0.18842389 0.1836672 -0.15936442 -0.22646895 -0.038652472 -0.23821302 -0.4102156
0.18686375 0.33005613 0.20656946 -0.15483233 0.22836488 0.3433831 0.19012935 0.05257301
0.24869661 0.2538928 0.27739066 0.1424154 0.006822235 0.29558066 0.27355105 -0.61227006
-0.3658289 0.10385713 0.1484885 0.014781984 0.09905376 0.2939771 0.35988876 0.30933058
-0.13459986 0.06211818 -0.02300642 -0.03358988 -0.12886402 -0.014663902 0.13289009 0.06628889
0.3018574 0.36449662 -0.18384531 -0.02221254 -0.5164388 -0.111717515 0.13786957 -0.23952052
-0.15896091 0.06394953 -0.18846568 -0.030702405 -0.3019761 -0.15705873 0.5752577 0.4330545
0.086715266 -0.20879935 0.023989998 0.036593758 0.083053485 -0.108178146 -0.123109646 0.39197448
-0.1480278 0.12072353 0.4627871 0.6324581 0.46646646 -0.1998667 0.19796038 -0.090439804
0.30927682 -0.2473332 0.23625971 0.032010823 -0.17980072 -0.19206424 0.106579825 0.011622811
0.39564785 -0.05697994 0.17210414 -0.07053187 0.3944122 -0.3952032 0.43917835 -0.12691833
00000000: acc2 393d 8489 d93d dff8 8a3d 0da8 dbbb
00000010: 8fd9 7f3d 7290 85be 6e04 1fbe 0707 9c3e
00000020: 091e 853e ae5f 2abe 262b 123e 1997 22be
00000030: de76 463c 3263 b03c 8927 643d 8f62 17bc
00000040: b7eb 943d dcba 65bd ec40 1ebe c535 903e
00000050: 6529 413e 96f4 09be 06fa adbe c476 863d
00000060: a488 b73d c5fa 16be 2825 ff3d ee09 883d
00000070: e2aa 4dbe bfb2 073e 9199 483c 94df 93bd
00000080: b8fd 7cbe d112 643e 31d1 54be f7c8 643e
00000090: 1a6b b9bd e39e 7b3e 46f8 643e 1e45 153e
000000a0: b8c5 3e3e 8ac1 423e 553e 713e 0b24 af3d
000000b0: a5f1 aabd 1b70 29be a7c6 193e 43cc 68bd
000000c0: 43ab a33e dfe6 bfbd b11c b6bc ffc9 183e
000000d0: 54d8 703e f367 84be 096f 0abe c219 3ebe
000000e0: 1c02 7abd 5cd8 77be 9f85 33bd 2ca6 70be
000000f0: ea65 273e f625 323e bed1 12be 5b47 b03d
00000100: ddf6 03be 7290 14bd d763 95be fe1a 63be
00000110: 375c 07be 37a7 db3d 58ea 7dbd 664d af3d
00000120: 131c 2c3e 12cb 113e d2d9 dabc 7d84 9cbe
00000130: 1278 553d 3693 cdbd da85 32be 7039 21be
00000140: 030d 4f3e ab27 1a3e 0f81 5a3e 8fa4 343e
00000150: 18ee 053e 9170 76bd cd09 64bd dfbc 783d
00000160: 26a6 cbbe 4052 cb3c 4758 063e 44ee 2e3e
00000170: c0bb 83be 65d0 923d 05f0 843d 9bbc 373e
00000180: 711f 38be 825e efbd efc8 89be 7dcf f3be
00000190: 2b5f 28be a4d6 0fbe b5ba 873d cec0 eabe
000001a0: e9e9 05be e8c3 e03e 7ea6 b63e 02c3 333c
000001b0: da90 8ebd 578a 20be deea dabe 5423 9cbe
000001c0: 0117 913e a89c ff3c 8dcc 943e f108 7bbe
000001d0: 6816 9bbd 29c9 a13e 3566 933e bddb 843e
000001e0: 8431 3a3e e4d5 243e 02f7 68bd 045f b2bd
000001f0: 9bb6 c23d 65e3 b7be b0dd 2a3e ed99 c9be
00000200: b2d2 bebd 1ef7 863e 2843 aebd 3892 f53d
00000210: 61cb 363d 8ba7 fb3d f689 afbd 6380 4abd
00000220: f536 943d 0554 583e eaec 7e3b 31ef fdbd
00000230: ddba 88bd 7db2 5a3e 1f1a 19be 879b 1d3e
00000240: c9ac 51be 62d9 1fbe 709d 9c3e 5dfe cb3d
00000250: 8e2d a63d 7fa2 13bd db4a c33e b9a4 333e
00000260: ec20 0e3e a206 0f3e 25bc 06be 2849 f83c
00000270: de97 dbbb fff1 163e ef31 f03d 353a b03c
00000280: 1ca4 353e 7983 43be 0b8d f53c 6ba0 2abe
00000290: ceca 043f 0a91 cabe 39f9 01be f7d0 75be
000002a0: 5fd1 1f3d 31f2 40be 4113 3c3e 6d30 23be
000002b0: 7ae7 67be 0e52 1ebd 1dee 73be c707 d2be
000002c0: 3659 3f3e 1efd a83e f286 533e 5e8c 1ebe
000002d0: 7cd8 693e e9cf af3e 45b1 423e cc56 573d
000002e0: 53aa 7e3e 3dfe 813e 2606 8e3e 58d5 113e
000002f0: 0e8d df3b 5956 973e e20e 8c3e bbbd 1cbf
00000300: ed4d bbbe 0cb3 d43d 5f0d 183e 2230 723c
00000310: b3dc ca3d 2b84 963e 5743 b83e 9460 9e3e
00000320: 8cd4 09be a26f 7e3d f677 bcbc 8b95 09bd
00000330: eef4 03be dd40 70bc 5714 083e 78c2 873d
00000340: 0e8d 9a3e 4d9f ba3e f241 3cbe 13f7 b5bc
00000350: 5535 04bf 27cc e4bd ae2d 0d3e de44 75be
00000360: a6c6 22be f9f7 823d 26fd 40be 9c83 fbbc
00000370: 9d9c 9abe 01d4 20be 1744 133f 52b9 dd3e
00000380: c697 b13d 7fcf 55be ac86 c43c 56e3 153d
00000390: f217 aa3d 818c ddbd e920 fcbd e1b0 c83e
000003a0: 9994 17be e63d f73d 6ef2 ec3e c6e8 213f
000003b0: b1d4 ee3e dba9 4cbe 20b6 4a3e 8138 b9bd
000003c0: 8859 9e3e ea44 7dbe 11ee 713e c81d 033d
000003d0: ae1d 38be 7dac 44be 8646 da3d 9a6d 3e3c
000003e0: 5b92 ca3e cc63 69bd 113c 303e 0373 90bd
000003f0: 65f0 c93e 1358 cabe fcdb e03e e1f6 01be

sequential/dense_1/BiasAdd/ReadVariableOp:0 f4 [32]
0.16785751 -0.055619836 -0.021552134 -0.021857146 0.053817317 0.050268337 0.110421345 0.14611422
0.1140537 -0.057327807 0.018958032 -0.05068605 0.009327116 0.09052585 -0.009958282 0.1957952
0.048454266 0.10066063 0.16692118 0.006316373 0.11156409 0.14381512 -0.087685704 0.24864094
-0.07449988 0.019851245 0.06907102 0.23500745 -0.092837326 0.15452725 0.103865005 -0.0052390634
00000000: d7e2 2b3e a0d1 63bd 1a8e b0bc c20d b3bc
00000010: 8c6f 5c3d 2ce6 4d3d 9624 e23d f79e 153e
00000020: fc94 e93d 90d0 6abd e04d 9b3c 2d9c 4fbd
00000030: c3d0 183c 9e65 b93d 1028 23bc 897e 483e
00000040: fb77 463d 2927 ce3d 63ed 2a3e 94f9 ce3b
00000050: b77b e43d 4544 133e 9094 b3bd bb9b 7e3e
00000060: 6593 98bd 149f a23c 1b75 8d3d cba5 703e
00000070: 7f21 bebd 643c 1e3e 2db7 d43d 73ac abbb

sequential/dense/MatMul/ReadVariableOp:0 f4 [784, 128]
-0.057407312 -0.012641288 0.044269376 -0.05949306 -0.021186344 -0.00838387 0.0400419 -0.03614048
-0.07712916 -0.0046893284 0.06522762 0.04563097 -0.019335322 0.06432373 -0.062069215 0.015767403
-0.030620959 -0.016080007 -0.058980845 -0.028031852 0.06465434 -0.01682631 0.0366911 0.05928839
-0.051004514 0.0006316304 -0.016146764 -0.067886055 0.06782011 0.0558595 -0.08017862 0.021121234
-0.03371099 -0.058080614 -0.08061343 0.065690584 0.06697721 -0.009661242 -0.059921928 -0.077257976
0.054084636 0.07755803 0.046732493 0.023002326 0.04956103 0.026763417 -0.022517305 0.07807811
-0.07960116 0.04747025 -0.059041493 -0.028415252 0.05501353 -0.0795702 -0.02595606 -0.0040716976
0.07259863 0.058483385 0.08013254 -0.060566664 0.05527153 -0.079145476 0.063573964 0.06553485
-0.07555224 -0.02879877 0.0054502264 0.0081001 0.066800855 -0.020191852 0.011591397 0.06212025
-0.00043693185 0.040581986 -0.036348425 0.07341822 -0.010708407 0.0641508 0.056557618 -0.0044133067
-0.067298114 0.039644174 0.033503912 0.031127177 -0.0014131069 -0.07303561 -0.080702074 0.03898406
0.014573805 -0.040947244 -0.05984697 -0.078316554 0.064719744 0.049462996 -0.006859392 0.03970474
-0.027428787 0.04304725 -0.036155522 0.027050994 -0.078052685 0.0620855 -0.014102899 0.027276695
0.052828737 -0.00031867623 -0.059365503 0.009299554 -0.023889374 -0.075680286 0.010234721 -0.022573695
0.010641754 -0.05283473 -0.071291454 0.08110272 -0.05000755 -0.07862647 0.063504525 -0.06330634
-0.07724605 -0.008400284 0.034507684 -0.06608659 0.022469983 -0.030736063 0.03664366 -0.036099944
0.07360766 0.026983194 0.072578005 0.08066017 0.055812128 0.04400132 0.061992086 -0.07491267
-0.060912162 -0.051549137 -0.01550094 0.0113652125 0.033047356 -0.008978635 -0.023673657 -0.058086216
-0.07805642 -0.012937687 -0.065397024 -0.014375746 0.07120288 0.06853979 0.013402566 0.015925765
0.041527897 0.050264798 -0.044907827 -0.02345322 -0.07921884 0.023069762 -0.044648364 -0.013405152
0.00792677 0.027819209 0.077852406 0.077603884 0.06847038 -0.019398056 -0.07965846 -0.016430728
-0.06174779 -0.015557915 0.070530124 0.038044855 0.009462617 -0.046259515 0.01251778 0.014588602
0.04036992 0.0022807568 0.041299976 0.0014090464 0.054663144 -0.056981616 0.044712313 0.044000007
-0.01746457 0.000499025 -0.056991786 -0.07327866 -0.059481688 -0.037571028 0.03995809 0.06458216
0.04566496 0.07826396 -0.059388924 -0.06132844 0.059539594 -0.07793714 -0.0025431588 -0.040777124
-0.06783655 -0.0672184 -0.012923822 -0.04228681 -0.049073506 -0.006643191 0.042782642 0.026804604
-0.045356475 -0.03460457 0.035790995 0.04596173 0.008655824 -0.06853944 0.014165729 -0.03265239
0.07360125 0.042030342 0.027498461 0.053561382 -0.078411624 0.026585363 -0.043460045 -0.07451881
0.005654134 0.06424456 -0.004552871 0.04661403 0.053683467 0.01570759 0.07413895 0.009283155
0.063611306 -0.024285171 -0.041781653 -0.014146507 0.02601508 -0.0062043667 -0.0054525286 0.020131327
0.06257071 0.031172603 -0.047415286 -0.03966227 0.067355506 -0.048943497 -0.015504755 0.06704787
0.035405852 -0.023611888 0.037109986 0.071421795 -0.04040092 -0.041347336 0.071014844 0.0045888275
00000000: ee23 6bbd 681d 4fbc ce53 353d ffae 73bd
00000010: fc8e adbc 805c 09bc fa02 243d 0a08 14bd
00000020: e5f5 9dbd f0a8 99bb 0f96 853d 8ae7 3a3d
00000030: 1c65 9ebc 29bc 833d 4a3c 7ebd a42a 813c
00000040: ced8 fabc 38ba 83bc e695 71bd 0ea3 e5bc
00000050: 7f69 843d 54d7 89bc 6849 163d 62d8 723d
00000060: 1cea 50bd 0094 253a 3846 84bc d807 8bbd
00000070: 45e5 8a3d eecc 643d b034 a4bd 7006 ad3c
00000080: 8914 0abd f0e5 6dbd a718 a5bd c988 863d
00000090: 592b 893d 304a 1ebc b270 75bd 6e39 9ebd
000000a0: da87 5d3d bfd6 9e3d 926a 3f3d 606f bc3c
000000b0: 8200 4b3d f43e db3c 3676 b8bc 6be7 9f3d
000000c0: ef05 a3bd 2a70 423d 7ed5 71bd 1ac7 e8bc
000000d0: de55 613d b3f5 a2bd cea1 d4bc e06b 85bb
000000e0: 97ae 943d 468c 6f3d 871c a43d c014 78bd
000000f0: 6664 623d 0617 a2bd 1133 823d 2337 863d
00000100: 22bb 9abd 66eb ebbc d097 b23b 48b6 043c
00000110: e3ce 883d 6269 a5bc d8e9 3d3c ce71 7e3d
00000120: 0014 e5b9 4c39 263d 16e2 14bd 4b5c 963d
00000130: 5072 2fbc 7f61 833d f6a8 673d 809d 90bb
00000140: 98d3 89bd ee61 223d 663b 093d 6cfe fe3c
00000150: 0038 b9ba b293 95bd 2147 a5bd c0ad 1f3d
00000160: f8c6 6e3c 4cb8 27bd 1922 75bd 6e64 a0bd
00000170: c98b 843d b699 4a3d c0c4 e0bb 70a1 223d
00000180: 56b2 e0bc 5052 303d d017 14bd 0c9a dd3c
00000190: 16da 9fbd 5e4d 7e3d d80f 67bc 6073 df3c
000001a0: f262 583d 0014 a7b9 3e29 73bd 285d 183c
000001b0: a6b3 c3bc 44fe 9abd 88af 273c 78ec b8bc
000001c0: c05a 2e3c 3b69 58bd 4101 92bd 2f19 a63d
000001d0: b7d4 4cbd ea06 a1bd a90e 823d c1a6 81bd
000001e0: 2d33 9ebd 58a1 09bc ee57 0d3d 6858 87bd
000001f0: f812 b83c 32ca fbbc aa17 163d 89dd 13bd
00000200: 9dbf 963d dc0b dd3c c7a3 943d 2931 a53d
00000210: 429b 643d ba3a 343d 6aeb 7d3d d06b 99bd
00000220: 087f 79bd 3025 53bd a8f7 7dbc 2835 3a3c
00000230: aa5c 073d 201b 13bc 42ef c1bc d0eb 6dbd
00000240: 0bdc 9fbd 98f8 53bc e0ee 85bd 4088 6bbc
00000250: d1d2 913d 975e 8c3d 7096 5b3c c076 823c
00000260: 2819 2a3d 76e2 4d3d 45f1 37bd f820 c0bc
00000270: 7d3d a2bd ccfc bc3c 34e1 36bd 48a1 5bbc
00000280: 48df 013c 1ce5 e33c 1571 9f3d c9ee 9e3d
00000290: 333a 8c3d ace8 9ebc fa23 a3bd bc99 86bc
000002a0: 40eb 7cbd a0e6 7ebc 1972 903d ecd4 1b3d
000002b0: 1809 1b3c 9e7a 3dbd 6017 4d3c 0805 6f3c
000002c0: ee5a 253d c078 153b 2a2a 293d c0af b83a
000002d0: 76e6 5f3d 8e65 69bd 4224 373d 5a39 343d
000002e0: dc11 8fbc 00d1 023a 3870 69bd 1f13 96bd
000002f0: 12a3 73bd 14e4 19bd 18ab 233d a743 843d
00000300: 2e0b 3b3d db48 a03d cd41 73bd 8833 7bbd
00000310: cadf 733d 829d 9fbd 20ab 26bb ea05 27bd
00000320: e4ed 8abd cda9 89bd 70be 53bc ef34 2dbd
00000330: 4d01 49bd 20af d9bb da3c 2f3d 5495 db3c
00000340: b6c7 39bd 86bd 0dbd 9499 123d 5e42 3c3d
00000350: 28d1 0d3c 685e 8cbd 6017 683c 83be 05bd
00000360: 41bc 963d 0228 2c3d 7444 e13c 2e63 5b3d
00000370: 4696 a0bd 8cc9 d93c 2903 32bd 519d 98bd
00000380: 5046 b93b a792 833d 4030 95bb 5aee 3e3d
00000390: 32e3 5b3d 34ad 803c 29d6 973d 6018 183c
000003a0: a546 823d b2f1 c6bc 3d23 2bbd c0c6 67bc
000003b0: 941d d53c 004e cbbb 20ab b2bb 74ea a43c
000003c0: 1325 803d b05d ff3c 8836 42bd e874 22bd
000003d0: aff1 893d fa78 48bd a807 7ebc 6550 893d
000003e0: ba05 113d b86d c1bc a400 183d 9745 923d
000003f0: 6f7b 25bd d35b 29bd 3b70 913d e05d 963b

sequential/dense/BiasAdd/ReadVariableOp:0 f4 [128]
-0.08846888 -0.073807366 0.010583826 0.082863145 -0.004818221 0.015842075 0.14198391 -0.121733695
0.07293103 0.11270923 -0.056972075 -0.008066366 -0.018562926 -0.080740646 -0.11251656 0.0026876684
-0.10512982 -0.029109424 -0.06270777 -0.0075086574 0.08177158 -0.0049680774 -0.07234326 0.09783259
0.060727835 0.08059158 0.046225592 0.0711718 0.036449086 0.031181335 -0.010870077 0.12334128
0.16828343 0.0045684907 0.101321705 0.17141032 0.047727317 0.085480966 0.022390682 0.06663046
0.050791707 0.084615305 -0.057420053 -0.13898717 -0.026179563 0.013152796 -0.12045665 0.124024995
0.16543466 0.005743418 0.013205077 0.096190885 -0.07515271 0.0063753137 0.027086493 0.103075765
0.103229016 0.017357677 0.09839498 0.015113643 0.12992966 0.05907042 0.010385782 -0.08402973
0.2070301 0.015028388 -0.07383894 0.18960315 -0.16363291 -0.12603258 0.009989939 -0.012059273
0.024344923 0.018121429 0.1266442 -0.01358912 -0.04969253 -0.10893796 0.011395318 0.043196794
0.05609775 0.040847585 0.052709803 0.126438 -0.14597823 -0.018267758 -0.18038248 0.073687926
0.0880482 0.14494663 -0.054447148 0.16281 0.0334622 0.035039555 0.12887631 -0.028345034
0.12640981 -0.04604778 0.018699288 -0.045388374 0.03897665 -0.028303294 0.0052398527 0.06413628
-0.01583037 -0.002073583 -0.021657696 0.09294607 0.0060752537 0.12655191 -0.010468221 -0.039689336
0.027031273 0.14655428 -0.021657716 0.09615414 -0.06502774 0.124280475 -0.017959654 -0.0167563
0.06540523 -0.09722215 0.042782918 -0.086182036 -0.011682467 -0.16478708 0.045089822 0.115635864
00000000: 2c2f b5bd 5128 97bd c967 2d3c 27b4 a93d
00000010: 2be2 9dbb 3dc7 813c 3b64 113e 844f f9bd
00000020: dd5c 953d 19d4 e63d 8d5b 69bd cb28 04bc
00000030: 4711 98bc 5a5b a5bd 156f e6bd 9823 303b
00000040: 4e4e d7bd e376 eebc ee6c 80bd 2f0b f6bb
00000050: dc77 a73d 41cb a2bb b428 94bd 745c c83d
00000060: c0bd 783d 330d a53d 0c57 3d3d 85c2 913d
00000070: a34b 153d 0070 ff3c 6818 32bc 5a9a fc3d
00000080: 7e52 2c3e 47b3 953b c181 cf3d 3086 2f3e
00000090: b87d 433d a510 af3d aa6c b73c 8d75 883d
000000a0: f70a 503d ca4a ad3d 4a31 6bbd a752 0ebe
000000b0: 8676 d6bc d37e 573c fab1 f6bd d100 fe3d
000000c0: b467 293e 4833 bc3b 1b5a 583c baff c43d
000000d0: aae9 99bd 02e8 d03b 7ee4 dd3c 6319 d33d
000000e0: bc69 d33d b031 8e3c 4f83 c93d 379f 773c
000000f0: 480c 053e d3f3 713d 2129 2a3c c717 acbd
00000100: b3ff 533e a139 763c df38 97bd 5427 423e
00000110: 638f 27be af0e 01be d7ac 233c 4294 45bc
00000120: 016f c73c 6473 943c 04af 013e e6a4 5ebc
00000130: 658a 4bbd dd1a dfbd 6eb3 3a3c 1fef 303d
00000140: c1c6 653d cc4f 273d 3ce6 573d f778 013e
00000150: 517b 15be 44a6 95bc 2fb6 38be b2e9 963d
00000160: 9d52 b43d e46c 143e f903 5fbd aab7 263e
00000170: a90f 093d a385 0f3d 27f8 033e d833 e8bc
00000180: 9371 013e 999c 3cbd 402f 993c 29e9 39bd
00000190: fba5 1f3d 4fdc e7bc 12b3 ab3b e259 833d
000001a0: b1ae 81bc f3e4 07bb 7b6b b1bc 825a be3d
000001b0: ec12 c73b d396 013e e782 2bbc 4991 22bd
000001c0: b070 dd3c 5312 163e 866b b1bc 76ec c43d
000001d0: 442d 85bd c386 fe3d 2020 93bc 8244 89bc
000001e0: 2df3 853d 681c c7bd 243d 2f3d 3580 b0bd
000001f0: d167 3fbc f2bd 28be 1bb0 383d 7fd2 ec3d
